3670
Found 3670 files belonging to 5 classes.
Using 2936 files for training.
Found 3670 files belonging to 5 classes.
Using 734 files for validation.
['daisy', 'dandelion', 'roses', 'sunflowers', 'tulips']
(32, 180, 180, 3)
(32,)
0.0 1.0
Model: "sequential"
_________________________________________________________________
 Layer (type)                Output Shape              Param #   
=================================================================
 rescaling_1 (Rescaling)     (None, 180, 180, 3)       0         
                                                                 
 conv2d (Conv2D)             (None, 180, 180, 16)      448       
                                                                 
 max_pooling2d (MaxPooling2  (None, 90, 90, 16)        0         
 D)                                                              
                                                                 
 conv2d_1 (Conv2D)           (None, 90, 90, 32)        4640      
                                                                 
 max_pooling2d_1 (MaxPoolin  (None, 45, 45, 32)        0         
 g2D)                                                            
                                                                 
 conv2d_2 (Conv2D)           (None, 45, 45, 64)        18496     
                                                                 
 max_pooling2d_2 (MaxPoolin  (None, 22, 22, 64)        0         
 g2D)                                                            
                                                                 
 flatten (Flatten)           (None, 30976)             0         
                                                                 
 dense (Dense)               (None, 128)               3965056   
                                                                 
 dense_1 (Dense)             (None, 5)                 645       
                                                                 
=================================================================
Total params: 3989285 (15.22 MB)
Trainable params: 3989285 (15.22 MB)
Non-trainable params: 0 (0.00 Byte)
_________________________________________________________________
Epoch 1/10
 1/92 [..............................] - ETA: 13:42 - loss: 1.5983 - accurac
…
90/92 [============================>.] - ETA: 0s - loss: 0.0623 - accuracy: 0.983692/92 [==============================] - 1s 14ms/step - loss: 0.0618 - accuracy: 0.9837 - val_loss: 2.3673 - val_accuracy: 0.6349
Model: "sequential_2"
_________________________________________________________________
 Layer (type)                Output Shape              Param #   
=================================================================
 sequential_1 (Sequential)   (None, 180, 180, 3)       0         
                                                                 
 rescaling_2 (Rescaling)     (None, 180, 180, 3)       0         
                                                                 
 conv2d_3 (Conv2D)           (None, 180, 180, 16)      448       
                                                                 
 max_pooling2d_3 (MaxPoolin  (None, 90, 90, 16)        0         
 g2D)                                                            
                                                                 
 conv2d_4 (Conv2D)           (None, 90, 90, 32)        4640      
                                                                 
 max_pooling2d_4 (MaxPoolin  (None, 45, 45, 32)        0         
 g2D)                                                            
                                                                 
 conv2d_5 (Conv2D)           (None, 45, 45, 64)        18496     
                                                                 
 max_pooling2d_5 (MaxPoolin  (None, 22, 22, 64)        0         
 g2D)                                                            
                                                                 
 dropout (Dropout)           (None, 22, 22, 64)        0         
                                                                 
 flatten_1 (Flatten)         (None, 30976)             0         
                                                                 
 dense_2 (Dense)             (None, 128)               3965056   
                                                                 
 outputs (Dense)             (None, 5)                 645       
                                                                 
=================================================================
Total params: 3989285 (15.22 MB)
Trainable params: 3989285 (15.22 MB)
Non-trainable params: 0 (0.00 Byte)
_________________________________________________________________
Epoch 1/15
 1/92 [..............................] - ETA: 2:49 - loss: 1.6352 - accuracy
…
