…
Intial values after Inf removal: (2446771, 76)
Normalized shape: (2446771, 76) 

Shape of X_train: (1957416, 76)
Shape of y_train: (1957416,)
Shape of  X_test: (489355, 76)
Shape of  y_test: (489355,)
Type of X_train: <class 'numpy.ndarray'>
Type of y_train: <class 'numpy.ndarray'>
Type of X_test: <class 'numpy.ndarray'>
Type of y_train: <class 'numpy.ndarray'>
14
Model: "sequential"
_________________________________________________________________
 Layer (type)                Output Shape              Param #   
=================================================================
 reshape (Reshape)           (None, 76, 1)             0         
                                                                 
 conv1d (Conv1D)             (None, 74, 64)            256       
                                                                 
 max_pooling1d (MaxPooling1  (None, 37, 64)            0         
 D)                                                              
                                                                 
 conv1d_1 (Conv1D)           (None, 35, 128)           24704     
                                                                 
 max_pooling1d_1 (MaxPoolin  (None, 17, 128)           0         
 g1D)                                                            
                                                                 
 conv1d_2 (Conv1D)           (None, 15, 256)           98560     
                                                                 
 max_pooling1d_2 (MaxPoolin  (None, 7, 256)            0         
 g1D)                                                            
                                                                 
 flatten (Flatten)           (None, 1792)              0         
                                                                 
 dense (Dense)               (None, 128)               229504    
                                                                 
 dense_1 (Dense)             (None, 128)               16512     
                                                                 
 dense_2 (Dense)             (None, 14)                1806      
                                                                 
=================================================================
Total params: 371342 (1.42 MB)
Trainable params: 371342 (1.42 MB)
Non-trainable params: 0 (0.00 Byte)
_________________________________________________________________
Epoch 1/10
    1/12234 [..............................] - ETA: 29:58:11 - loss: 2.6307 - acc
…
ss: 0.1495 - accuracy: 0.936312234/12234 [==============================] - 46s 4ms/step - loss: 0.1495 - accuracy: 0.9363 - val_loss: 0.1509 - val_accuracy: 0.9342
15293/15293 - 21s - loss: 0.1516 - accuracy: 0.9338 - 21s/epoch - 1ms/step
Test accuracy: 93.38%
Model: "sequential_1"
_________________________________________________________________
 Layer (type)                Output Shape              Param #   
=================================================================
 reshape_1 (Reshape)         (None, 76, 1)             0         
                                                                 
 lstm (LSTM)                 (None, 76, 50)            10400     
                                                                 
 lstm_1 (LSTM)               (None, 76, 100)           60400     
                                                                 
 lstm_2 (LSTM)               (None, 76, 200)           240800    
                                                                 
 flatten_1 (Flatten)         (None, 15200)             0         
                                                                 
 dense_3 (Dense)             (None, 128)               1945728   
                                                                 
 dense_4 (Dense)             (None, 128)               16512     
                                                                 
 dense_5 (Dense)             (None, 14)                1806      
                                                                 
=================================================================
Total params: 2275646 (8.68 MB)
Trainable params: 2275646 (8.68 MB)
Non-trainable params: 0 (0.00 Byte)
_________________________________________________________________
Epoch 1/10
    1/12234 [..............................] - ETA: 13:58:52 - loss: 2.6390 - a
…
