…
0     534769
13    534769
4     534769
1     534769
7     534769
11    534769
10    534769
8     534769
9     534769
5     534769
3     534769
12    534769
2     534769
Name: count, dtype: int64
Type of X_train: <class 'numpy.ndarray'>
Type of y_train: <class 'numpy.ndarray'>
Type of X_test: <class 'numpy.ndarray'>
Type of y_train: <class 'numpy.ndarray'>
14
Model: "sequential"
_________________________________________________________________
 Layer (type)                Output Shape              Param #   
=================================================================
 reshape (Reshape)           (None, 76, 1)             0         
                                                                 
 conv1d (Conv1D)             (None, 74, 64)            256       
                                                                 
 batch_normalization (Batch  (None, 74, 64)            256       
 Normalization)                                                  
                                                                 
 max_pooling1d (MaxPooling1  (None, 37, 64)            0         
 D)                                                              
                                                                 
 conv1d_1 (Conv1D)           (None, 35, 128)           24704     
                                                                 
 batch_normalization_1 (Bat  (None, 35, 128)           512       
 chNormalization)                                                
                                                                 
 max_pooling1d_1 (MaxPoolin  (None, 17, 128)           0         
 g1D)                                                            
                                                                 
 conv1d_2 (Conv1D)           (None, 15, 256)           98560     
                                                                 
 batch_normalization_2 (Bat  (None, 15, 256)           1024      
 chNormalization)                                                
                                                                 
 max_pooling1d_2 (MaxPoolin  (None, 7, 256)            0         
 g1D)                                                            
                                                                 
 flatten (Flatten)           (None, 1792)              0         
                                                                 
 dense (Dense)               (None, 128)               229504    
                                                                 
 dense_1 (Dense)             (None, 128)               16512     
                                                                 
 dense_2 (Dense)             (None, 14)                1806      
                                                                 
=================================================================
Total params: 373134 (1.42 MB)
Trainable params: 372238 (1.42 MB)
Non-trainable params: 896 (3.50 KB)
_________________________________________________________________
Epoch 1/10
46793/46793 - 229s - loss: 0.2643 - accuracy: 0.8745 - val_loss: 5.6560 - val_accuracy: 0.4231 - 229s/epoch - 5ms/step
…
