…
4     534769
7     534769
11    534769
6     534769
1     534769
13    534769
8     534769
10    534769
9     534769
5     534769
3     534769
2     534769
12    534769
Name: count, dtype: int64
Type of X_train: <class 'numpy.ndarray'>
Type of y_train: <class 'numpy.ndarray'>
Type of X_test: <class 'numpy.ndarray'>
Type of y_train: <class 'numpy.ndarray'>
14
Model: "sequential"
_________________________________________________________________
 Layer (type)                Output Shape              Param #   
=================================================================
 reshape (Reshape)           (None, 76, 1)             0         
                                                                 
 conv1d (Conv1D)             (None, 74, 64)            256       
                                                                 
 batch_normalization (Batch  (None, 74, 64)            256       
 Normalization)                                                  
                                                                 
 max_pooling1d (MaxPooling1  (None, 37, 64)            0         
 D)                                                              
                                                                 
 conv1d_1 (Conv1D)           (None, 35, 128)           24704     
                                                                 
 batch_normalization_1 (Bat  (None, 35, 128)           512       
 chNormalization)                                                
                                                                 
 max_pooling1d_1 (MaxPoolin  (None, 17, 128)           0         
 g1D)                                                            
                                                                 
 conv1d_2 (Conv1D)           (None, 15, 256)           98560     
                                                                 
 batch_normalization_2 (Bat  (None, 15, 256)           1024      
 chNormalization)                                                
                                                                 
 max_pooling1d_2 (MaxPoolin  (None, 7, 256)            0         
 g1D)                                                            
                                                                 
 flatten (Flatten)           (None, 1792)              0         
                                                                 
 dense (Dense)               (None, 128)               229504    
                                                                 
 dense_1 (Dense)             (None, 128)               16512     
                                                                 
 dense_2 (Dense)             (None, 14)                1806      
                                                                 
=================================================================
Total params: 373134 (1.42 MB)
Trainable params: 372238 (1.42 MB)
Non-trainable params: 896 (3.50 KB)
_________________________________________________________________
Epoch 1/10
46793/46793 - 231s - loss: 0.2775 - accuracy: 0.8644 - val_loss: 3.7198 - val_accuracy: 0.5284 - 231s/epoch - 5ms/step
…
          10       0.87      0.49      0.63      7869
          11       0.70      0.37      0.48     32121
          12       0.00      0.00      0.00        17
          13       1.00      1.00      1.00     23465

    accuracy                           0.92    489355
   macro avg       0.70      0.79      0.68    489355
weighted avg       0.93      0.92      0.92    489355

Model: "sequential_1"
_________________________________________________________________
 Layer (type)                Output Shape              Param #   
=================================================================
 reshape_1 (Reshape)         (None, 76, 1)             0         
                                                                 
 conv1d_3 (Conv1D)           (None, 74, 128)           512       
                                                                 
 max_pooling1d_3 (MaxPoolin  (None, 37, 128)           0         
 g1D)                                                            
                                                                 
 conv1d_4 (Conv1D)           (None, 35, 256)           98560     
                                                                 
 max_pooling1d_4 (MaxPoolin  (None, 17, 256)           0         
 g1D)                                                            
                                                                 
 conv1d_5 (Conv1D)           (None, 15, 512)           393728    
                                                                 
 max_pooling1d_5 (MaxPoolin  (None, 7, 512)            0         
 g1D)                                                            
                                                                 
 flatten_1 (Flatten)         (None, 3584)              0         
                                                                 
 dense_3 (Dense)             (None, 128)               458880    
                                                                 
 dense_4 (Dense)             (None, 128)               16512     
                                                                 
 dense_5 (Dense)             (None, 14)                1806      
                                                                 
=================================================================
Total params: 969998 (3.70 MB)
Trainable params: 969998 (3.70 MB)
Non-trainable params: 0 (0.00 Byte)
_________________________________________________________________
Epoch 1/10
46793/46793 - 269s - loss: 0.2690 - accuracy: 0.8716 - val_loss: 3.6775 - val_accuracy: 0.4289 - 269s/epoch - 6ms/step
…
          10       0.90      0.45      0.60      7869
          11       0.70      0.39      0.50     32121
          12       0.00      0.00      0.00        17
          13       1.00      1.00      1.00     23465

    accuracy                           0.93    489355
   macro avg       0.70      0.79      0.69    489355
weighted avg       0.94      0.93      0.93    489355

Model: "sequential_2"
_________________________________________________________________
 Layer (type)                Output Shape              Param #   
=================================================================
 reshape_2 (Reshape)         (None, 76, 1)             0         
                                                                 
 conv1d_6 (Conv1D)           (None, 74, 128)           512       
                                                                 
 max_pooling1d_6 (MaxPoolin  (None, 37, 128)           0         
 g1D)                                                            
                                                                 
 conv1d_7 (Conv1D)           (None, 35, 64)            24640     
                                                                 
 max_pooling1d_7 (MaxPoolin  (None, 17, 64)            0         
 g1D)                                                            
                                                                 
 conv1d_8 (Conv1D)           (None, 15, 32)            6176      
                                                                 
 max_pooling1d_8 (MaxPoolin  (None, 7, 32)             0         
 g1D)                                                            
                                                                 
 flatten_2 (Flatten)         (None, 224)               0         
                                                                 
 dense_6 (Dense)             (None, 64)                14400     
                                                                 
 dense_7 (Dense)             (None, 128)               8320      
                                                                 
 dense_8 (Dense)             (None, 14)                1806      
                                                                 
=================================================================
Total params: 55854 (218.18 KB)
Trainable params: 55854 (218.18 KB)
Non-trainable params: 0 (0.00 Byte)
_________________________________________________________________
Epoch 1/10
46793/46793 - 143s - loss: 0.2922 - accuracy: 0.8607 - val_loss: 3.6859 - val_accuracy: 0.4253 - 143s/epoch - 3ms/step
…
