…
Intial values after Inf removal: (2446792, 76)
Normalized shape: (2446792, 76) 

Shape of X_train: (1957433, 76)
Shape of y_train: (1957433,)
Shape of  X_test: (489359, 76)
Shape of  y_test: (489359,)
Type of X_train: <class 'numpy.ndarray'>
Type of y_train: <class 'numpy.ndarray'>
Type of X_test: <class 'numpy.ndarray'>
Type of y_train: <class 'numpy.ndarray'>
14
Model: "sequential"
_________________________________________________________________
 Layer (type)                Output Shape              Param #   
=================================================================
 reshape (Reshape)           (None, 76, 1)             0         
                                                                 
 conv1d (Conv1D)             (None, 74, 64)            256       
                                                                 
 batch_normalization (Batch  (None, 74, 64)            256       
 Normalization)                                                  
                                                                 
 max_pooling1d (MaxPooling1  (None, 37, 64)            0         
 D)                                                              
                                                                 
 conv1d_1 (Conv1D)           (None, 35, 128)           24704     
                                                                 
 batch_normalization_1 (Bat  (None, 35, 128)           512       
 chNormalization)                                                
                                                                 
 max_pooling1d_1 (MaxPoolin  (None, 17, 128)           0         
 g1D)                                                            
                                                                 
 conv1d_2 (Conv1D)           (None, 15, 256)           98560     
                                                                 
 batch_normalization_2 (Bat  (None, 15, 256)           1024      
 chNormalization)                                                
                                                                 
 max_pooling1d_2 (MaxPoolin  (None, 7, 256)            0         
 g1D)                                                            
                                                                 
 flatten (Flatten)           (None, 1792)              0         
                                                                 
 dense (Dense)               (None, 128)               229504    
                                                                 
 dense_1 (Dense)             (None, 128)               16512     
                                                                 
 dense_2 (Dense)             (None, 14)                1806      
                                                                 
=================================================================
Total params: 373134 (1.42 MB)
Trainable params: 372238 (1.42 MB)
Non-trainable params: 896 (3.50 KB)
_________________________________________________________________
Epoch 1/10
12234/12234 - 69s - loss: 0.1943 - accuracy: 0.9250 - val_loss: 0.1774 - val_accuracy: 0.9285 - 69s/epoch - 6ms/step
…
          10       0.67      0.96      0.79      7869
          11       0.69      0.38      0.49     32121
          12       1.00      0.35      0.52        17
          13       1.00      1.00      1.00     23465

    accuracy                           0.94    489359
   macro avg       0.87      0.78      0.79    489359
weighted avg       0.93      0.94      0.93    489359

Model: "sequential_1"
_________________________________________________________________
 Layer (type)                Output Shape              Param #   
=================================================================
 reshape_1 (Reshape)         (None, 76, 1)             0         
                                                                 
 conv1d_3 (Conv1D)           (None, 74, 128)           512       
                                                                 
 max_pooling1d_3 (MaxPoolin  (None, 37, 128)           0         
 g1D)                                                            
                                                                 
 conv1d_4 (Conv1D)           (None, 35, 256)           98560     
                                                                 
 max_pooling1d_4 (MaxPoolin  (None, 17, 256)           0         
 g1D)                                                            
                                                                 
 conv1d_5 (Conv1D)           (None, 15, 512)           393728    
                                                                 
 max_pooling1d_5 (MaxPoolin  (None, 7, 512)            0         
 g1D)                                                            
                                                                 
 flatten_1 (Flatten)         (None, 3584)              0         
                                                                 
 dense_3 (Dense)             (None, 128)               458880    
                                                                 
 dense_4 (Dense)             (None, 128)               16512     
                                                                 
 dense_5 (Dense)             (None, 14)                1806      
                                                                 
=================================================================
Total params: 969998 (3.70 MB)
Trainable params: 969998 (3.70 MB)
Non-trainable params: 0 (0.00 Byte)
_________________________________________________________________
Epoch 1/10
12234/12234 - 72s - loss: 0.2081 - accuracy: 0.9204 - val_loss: 0.1777 - val_accuracy: 0.9314 - 72s/epoch - 6ms/step
…
