…
Intial values after Inf removal: (2446781, 76)
Normalized shape: (2446781, 76) 

Shape of X_train: (1957424, 76)
Shape of y_train: (1957424,)
Shape of  X_test: (489357, 76)
Shape of  y_test: (489357,)
Type of X_train: <class 'numpy.ndarray'>
Type of y_train: <class 'numpy.ndarray'>
Type of X_test: <class 'numpy.ndarray'>
Type of y_train: <class 'numpy.ndarray'>
14
Model: "sequential"
_________________________________________________________________
 Layer (type)                Output Shape              Param #   
=================================================================
 reshape (Reshape)           (None, 76, 1)             0         
                                                                 
 conv1d (Conv1D)             (None, 74, 64)            256       
                                                                 
 batch_normalization (Batch  (None, 74, 64)            256       
 Normalization)                                                  
                                                                 
 max_pooling1d (MaxPooling1  (None, 37, 64)            0         
 D)                                                              
                                                                 
 conv1d_1 (Conv1D)           (None, 35, 128)           24704     
                                                                 
 batch_normalization_1 (Bat  (None, 35, 128)           512       
 chNormalization)                                                
                                                                 
 max_pooling1d_1 (MaxPoolin  (None, 17, 128)           0         
 g1D)                                                            
                                                                 
 conv1d_2 (Conv1D)           (None, 15, 256)           98560     
                                                                 
 batch_normalization_2 (Bat  (None, 15, 256)           1024      
 chNormalization)                                                
                                                                 
 max_pooling1d_2 (MaxPoolin  (None, 7, 256)            0         
 g1D)                                                            
                                                                 
 flatten (Flatten)           (None, 1792)              0         
                                                                 
 dense (Dense)               (None, 128)               229504    
                                                                 
 dense_1 (Dense)             (None, 128)               16512     
                                                                 
 dense_2 (Dense)             (None, 14)                1806      
                                                                 
=================================================================
Total params: 373134 (1.42 MB)
Trainable params: 372238 (1.42 MB)
Non-trainable params: 896 (3.50 KB)
_________________________________________________________________
Epoch 1/100
24468/24468 - 117s - loss: 0.1967 - accuracy: 0.9242 - val_loss: 0.1805 - val_accuracy: 0.9312 - 117s/epoch - 5ms/step
…
